…
":"2024-02-07T11:45:34.811517Z","shell.execute_reply.started":"2024-02-07T11:45:34.757588Z","shell.execute_reply":"2024-02-07T11:45:34.810662Z"},"trusted":true},"execution_count":19,"outputs":[{"name":"stdout","text":"Model: \"vgg16\"\n_________________________________________________________________\n Layer (type)                Output Shape              Param #   \n=================================================================\n input_1 (InputLayer)        [(None, 150, 150, 3)]     0         \n                                                                 \n block1_conv1 (Conv2D)       (None, 150, 150, 64)      1792      \n                                                                 \n block1_conv2 (Conv2D)       (None, 150, 150, 64)      36928     \n                                                                 \n block1_pool (MaxPooling2D)  (None, 75, 75, 64)        0         \n                                                                 \n block2_conv1 (Conv2D)       (None, 75, 75, 128)       73856     \n                                                                 \n block2_conv2 (Conv2D)       (None, 75, 75, 128)       147584    \n                                                                 \n block2_pool (MaxPooling2D)  (None, 37, 37, 128)       0         \n                                                                 \n block3_conv1 (Conv2D)       (None, 37, 37, 256)       295168    \n                                                                 \n block3_conv2 (Conv2D)       (None, 37, 37, 256)       590080    \n                                                                 \n block3_conv3 (Conv2D)       (None, 37, 37, 256)       590080    \n                                                                 \n block3_pool (MaxPooling2D)  (None, 18, 18, 256)       0         \n                                                                 \n block4_conv1 (Conv2D)       (None, 18, 18, 512)       1180160   \n                                                                 \n block4_conv2 (Conv2D)       (None, 18, 18, 512)       2359808   \n                                                                 \n block4_conv3 (Conv2D)       (None, 18, 18, 512)       2359808   \n                                                                 \n block4_pool (MaxPooling2D)  (None, 9, 9, 512)         0         \n                                                                 \n block5_conv1 (Conv2D)       (None, 9, 9, 512)         2359808   \n                                                                 \n block5_conv2 (Conv2D)       (None, 9, 9, 512)         2359808   \n                                                                 \n block5_conv3 (Conv2D)       (None, 9, 9, 512)         2359808   \n                                                                 \n block5_pool (MaxPooling2D)  (None, 4, 4, 512)         0         \n                                                                 \n=================================================================\nTotal params: 14714688 (56.13 MB)\nTrainable params: 0 (0.00 Byte)\nNon-trainable params: 14714688 (56.13 MB)\n_________________________________________________________________\n","output_type":"stream"}]},{"cell_type":"code","source":"# model = Sequentia
…
cution":{"iopub.status.busy":"2024-02-07T11:45:34.817778Z","iopub.execute_input":"2024-02-07T11:45:34.818078Z","iopub.status.idle":"2024-02-07T11:45:34.845649Z","shell.execute_reply.started":"2024-02-07T11:45:34.818054Z","shell.execute_reply":"2024-02-07T11:45:34.843639Z"},"trusted":true},"execution_count":21,"outputs":[{"name":"stdout","text":"Model: \"sequential\"\n_________________________________________________________________\n Layer (type)                Output Shape              Param #   \n=================================================================\n vgg16 (Functional)          (None, 4, 4, 512)         14714688  \n                                                                 \n flatten (Flatten)           (None, 8192)              0         \n                                                                 \n dense (Dense)               (None, 512)               4194816   \n                                                                 \n dense_1 (Dense)             (None, 256)               131328    \n                                                                 \n dropout (Dropout)           (None, 256)               0         \n                                                                 \n dense_2 (Dense)             (None, 4)                 1028      \n                                                                 \n=================================================================\nTotal params: 19041860 (72.64 MB)\nTrainable params: 4327172 (16.51 MB)\nNon-trainable params: 14714688 (56.13 MB)\n_________________________________________________________________\n","output_type":"stream"}]},{"cell_type":"code","source":"model.compile(los
…
